pybullet build time: Jul  8 2020 18:23:32
/home/michal/.local/lib/python3.6/site-packages/gym/envs/registration.py:14: PkgResourcesDeprecationWarning: Parameters to load are deprecated.  Call .resolve and .require separately.
  result = entry_point.load(False)
[33mWARN: gym.spaces.Box autodetected dtype as <class 'numpy.float32'>. Please provide explicit dtype.[0m
[33mWARN: gym.spaces.Box autodetected dtype as <class 'numpy.float32'>. Please provide explicit dtype.[0m
WalkerBase::__init__
Sequential(
  (0): Linear(in_features=28, out_features=256, bias=True)
  (1): ReLU()
  (2): Linear(in_features=256, out_features=128, bias=True)
  (3): ReLU()
)
Sequential(
  (0): Linear(in_features=128, out_features=8, bias=True)
  (1): Tanh()
)
Sequential(
  (0): Linear(in_features=128, out_features=8, bias=True)
  (1): Softplus(beta=1, threshold=20)
)
Sequential(
  (0): Linear(in_features=28, out_features=256, bias=True)
  (1): ReLU()
  (2): Linear(in_features=256, out_features=128, bias=True)
  (3): ReLU()
)
Sequential(
  (0): Linear(in_features=128, out_features=8, bias=True)
  (1): Tanh()
)
Sequential(
  (0): Linear(in_features=128, out_features=8, bias=True)
  (1): Softplus(beta=1, threshold=20)
)
Sequential(
  (0): Linear(in_features=36, out_features=256, bias=True)
  (1): ReLU()
  (2): Linear(in_features=256, out_features=128, bias=True)
  (3): ReLU()
  (4): Linear(in_features=128, out_features=1, bias=True)
)
Sequential(
  (0): Linear(in_features=36, out_features=256, bias=True)
  (1): ReLU()
  (2): Linear(in_features=256, out_features=128, bias=True)
  (3): ReLU()
  (4): Linear(in_features=128, out_features=1, bias=True)
)
Sequential(
  (0): Linear(in_features=36, out_features=128, bias=True)
  (1): ReLU()
)
Sequential(
  (0): Linear(in_features=128, out_features=128, bias=True)
  (1): ReLU()
  (2): Linear(in_features=128, out_features=28, bias=True)
)
Sequential(
  (0): Linear(in_features=128, out_features=128, bias=True)
  (1): ReLU()
  (2): Linear(in_features=128, out_features=1, bias=True)
)
1000 1 20.0 532.707 10.654 0.1046 0.0 
2000 2 37.74 1035.547 19.617 0.197 0.0 
3000 3 56.985 1418.973 26.783 0.2967 0.0 
4000 4 75.845 1840.59 34.64 0.3943 0.0 
5000 5 94.329 2305.944 43.528 0.5554 0.0 
6000 7 111.734 2834.611 52.866 0.7283 0.0 
7000 8 123.84 3346.528 58.68 0.8464 0.0 
8000 10 142.996 3828.322 68.229 1.0348 0.0 
9000 11 160.136 4353.757 77.442 1.1989 0.0 
…
3995000 4152 1000.0 4565817.03 1366.539 68.6175 0.0 
3996000 4153 1000.0 4566630.34 1355.085 68.6213 0.0 
3997000 4154 1000.0 4568106.385 1357.878 68.6177 0.0 
3998000 4155 1000.0 4569789.052 1363.267 68.6084 0.0 
3999000 4156 1000.0 4570904.791 1358.142 68.6042 0.0 
4000000 4157 1000.0 4572044.518 1354.554 68.6001 0.0 
pybullet build time: Jul  8 2020 18:23:32
[33mWARN: gym.spaces.Box autodetected dtype as <class 'numpy.float32'>. Please provide explicit dtype.[0m
[33mWARN: gym.spaces.Box autodetected dtype as <class 'numpy.float32'>. Please provide explicit dtype.[0m
WalkerBase::__init__
Sequential(
  (0): Linear(in_features=28, out_features=256, bias=True)
  (1): ReLU()
  (2): Linear(in_features=256, out_features=128, bias=True)
  (3): ReLU()
  (4): Linear(in_features=128, out_features=8, bias=True)
  (5): Tanh()
)
Sequential(
  (0): Linear(in_features=28, out_features=256, bias=True)
  (1): ReLU()
  (2): Linear(in_features=256, out_features=128, bias=True)
  (3): ReLU()
  (4): Linear(in_features=128, out_features=8, bias=True)
  (5): Tanh()
)
Sequential(
  (0): Linear(in_features=36, out_features=256, bias=True)
  (1): ReLU()
  (2): Linear(in_features=256, out_features=128, bias=True)
  (3): ReLU()
  (4): Linear(in_features=128, out_features=1, bias=True)
)
Sequential(
  (0): Linear(in_features=36, out_features=256, bias=True)
  (1): ReLU()
  (2): Linear(in_features=256, out_features=128, bias=True)
  (3): ReLU()
  (4): Linear(in_features=128, out_features=1, bias=True)
)
Sequential(
  (0): Linear(in_features=36, out_features=128, bias=True)
  (1): ReLU()
)
Sequential(
  (0): Linear(in_features=128, out_features=128, bias=True)
  (1): ReLU()
  (2): Linear(in_features=128, out_features=28, bias=True)
)
Sequential(
  (0): Linear(in_features=128, out_features=128, bias=True)
  (1): ReLU()
  (2): Linear(in_features=128, out_features=1, bias=True)
)
1000 2 6.224 401.774 2.287 0.0194 0.0 
2000 4 26.117 830.19 10.438 0.0825 0.0 
3000 7 46.561 1249.394 19.278 0.1474 0.0 
4000 9 64.717 1601.921 25.466 0.2054 0.0 
5000 12 87.242 1995.313 34.808 0.3087 0.0 
6000 17 96.437 2455.871 39.489 0.3676 0.0 
7000 18 114.508 2897.805 47.525 0.4651 0.0 
8000 20 115.161 3330.289 47.831 0.4742 0.0 
9000 21 132.858 3760.051 55.603 0.5619 0.0 
…
3996000 4314 999.999 3489425.563 950.81 8.4895 0.0 /home/michal/.local/lib/python3.6/site-packages/gym/envs/registration.py:14: PkgResourcesDeprecationWarning: Parameters to load are deprecated.  Call .resolve and .require separately.
  result = entry_point.load(False)

3997000 4315 999.999 3490219.645 949.629 8.4876 0.0 
3998000 4316 999.999 3491064.463 947.665 8.4929 0.0 
3999000 4317 999.999 3491951.055 944.75 8.4994 0.0 
4000000 4318 999.999 3492961.962 943.761 8.5062 0.0 
pybullet build time: Jul  8 2020 18:23:32
[33mWARN: gym.spaces.Box autodetected dtype as <class 'numpy.float32'>. Please provide explicit dtype.[0m
[33mWARN: gym.spaces.Box autodetected dtype as <class 'numpy.float32'>. Please provide explicit dtype.[0m
WalkerBase::__init__
Sequential(
  (0): Linear(in_features=28, out_features=256, bias=True)
  (1): ReLU()
  (2): Linear(in_features=256, out_features=128, bias=True)
  (3): ReLU()
  (4): Linear(in_features=128, out_features=8, bias=True)
  (5): Tanh()
)
Sequential(
  (0): Linear(in_features=28, out_features=256, bias=True)
  (1): ReLU()
  (2): Linear(in_features=256, out_features=128, bias=True)
  (3): ReLU()
  (4): Linear(in_features=128, out_features=8, bias=True)
  (5): Tanh()
)
Sequential(
  (0): Linear(in_features=36, out_features=256, bias=True)
  (1): ReLU()
  (2): Linear(in_features=256, out_features=128, bias=True)
  (3): ReLU()
  (4): Linear(in_features=128, out_features=1, bias=True)
)
Sequential(
  (0): Linear(in_features=36, out_features=256, bias=True)
  (1): ReLU()
  (2): Linear(in_features=256, out_features=128, bias=True)
  (3): ReLU()
  (4): Linear(in_features=128, out_features=1, bias=True)
)
1000 1 20.0 464.663 9.293 0.0267 0.0 
2000 2 39.6 916.143 18.137 0.0533 0.0 
3000 3 52.508 1412.256 24.926 0.0707 0.0 
4000 4 71.458 1873.095 33.617 0.096 0.0 
5000 5 90.029 2326.567 41.575 0.1216 0.0 
6000 6 108.228 2729.631 49.061 0.1465 0.0 
7000 7 126.064 3180.459 57.046 0.1702 0.0 
8000 8 143.542 3655.44 65.215 0.1936 0.0 
9000 9 160.671 4227.884 75.174 0.2166 0.0 
…
